ecg_project/best_cvae.pth (torch, 589323 bytes, 114 tensors)

encoder.0.weight f4 [16, 12, 19]
0.004771125 -0.05427803 0.023602756 0.014574648 0.046973124 0.035976075 0.019524213 0.019880742
-0.027146727 -0.0063797985 0.043080963 0.05718584 0.0132458005 0.027991883 -0.06250195 0.0091879945
-0.008201245 -0.04871321 0.006420143 0.018976668 -0.035586175 0.04410292 0.06261919 0.044213798
-0.017414095 0.05037638 -0.0585913 0.0012877601 -0.056426458 -0.017097358 -0.029734306 0.043030977
-0.0059193494 -0.055982377 0.01838579 -0.049462464 -0.03192642 0.0445778 0.009632392 0.06543251
-0.041051738 0.033100083 -0.035922255 0.011700319 -0.045012802 -0.05281712 -0.04879703 0.015314852
0.037331622 -0.050112326 0.079560585 0.010971393 -0.042307746 -0.01980729 0.034092873 0.04856414
0.05410581 0.016629368 0.054111287 0.058681965 -0.061913725 -0.0513018 -0.0072755916 -0.041846592
-0.06792855 0.034784555 0.002574085 0.015432132 0.0028998402 0.049931195 0.020628672 -0.03448174
-0.005453967 0.04870573 0.03615749 -0.03255651 -0.03213454 0.004527318 0.05778651 -0.035613775
0.047163494 -0.039291095 -0.027583187 -0.022934597 0.00664341 -0.059161875 -0.006026992 0.040343042
0.000814968 -0.02856191 -0.073012784 0.048795927 -0.019896954 0.016724838 0.00774157 -0.026233569
0.057662975 -0.024431389 0.012975641 -0.057518873 -0.04099817 0.03845021 0.0303859 -0.084664084
0.038779344 0.03361643 -0.01780933 -0.0387971 -0.053058393 -0.048263904 -0.052147813 -0.05607367
-0.026023548 0.039679196 -0.009605402 0.04488489 -0.030877478 -0.021809798 0.034597155 0.02369967
-0.02790424 -0.025862 0.029226484 -0.008769667 0.019535456 -0.05498562 0.0052212635 -0.028890016
0.013175233 0.0064636967 0.0030801236 -0.002568484 0.06790064 -0.0029452755 0.03521232 0.057709254
0.01118944 -0.04622351 -0.01954031 0.032380674 -0.04659039 0.024507256 0.051960297 -0.0051610246
0.0077202646 -0.05802609 -0.05043993 0.041846152 -0.042168155 -0.030002205 0.010581402 0.047377285
0.046778534 0.026888957 0.020536948 0.049352862 -0.050909515 -0.015971255 -0.04736889 0.04935109
-0.037329096 0.056567457 0.014673597 -0.06983427 -0.044771265 0.03537469 -0.051871553 0.016304204
-0.04849291 -0.010540687 -0.053701896 -0.01111267 0.044157118 0.06487341 0.06977601 -0.018258689
-0.020800881 -0.012622112 -0.0474236 0.06552242 0.056009796 -0.016880445 0.05940235 0.01772054
0.057837915 0.018642569 -0.04929722 0.055574335 -0.066678025 -0.0721454 -0.016775979 -0.041950025
0.037778374 0.017606378 0.013743369 0.065033175 0.020445403 0.00011862298 -0.028949464 0.016875824
0.0594679 0.038489744 -0.03844967 0.048495296 -0.049792815 0.05345635 0.03669285 -0.005257101
-0.013901932 0.05910409 0.014911686 0.035136506 0.004993269 0.023798889 0.042545024 0.06031847
-0.019898161 -0.03181835 0.04816698 0.012685559 -0.025818363 0.018542575 0.037705924 0.009737963
0.004461169 0.028600914 0.018000985 0.009155141 0.04272713 -0.04997742 0.027911842 -0.02949519
-0.03267732 -0.05377131 0.015505683 0.051144868 0.017913805 0.050872784 -0.008068939 -0.041640017
-0.014023241 0.034697574 -0.03816995 0.011260802 0.055538867 -0.06522452 0.035408553 -0.022278028
-0.017180216 -0.012581462 0.003399221 -0.07388235 0.04176129 -0.055299636 -0.016499938 -0.022202251
00000000: 1957 9c3b a452 5ebd 915a c13c 81ca 6e3c
00000010: e466 403d a65b 133d 3ef1 9f3c f0dc a23c
00000020: d062 debc a10d d1bb aa75 303d b33b 6a3d
00000030: ea04 593c 3c4f e53c 0601 80bd 3e89 163c
00000040: 845e 06bc 8187 47bd 1060 d23b f574 9b3c
00000050: cfc2 11bd 43a5 343d 7d3e 803d 8719 353d
00000060: 01a8 8ebc 7757 4e3d 6efd 6fbd 0fca a83a
00000070: 6e1f 67bd c20f 8cbc 5c95 f3bc 4041 303d
00000080: 1af7 c1bb c74d 65bd cc9d 963c 2799 4abd
00000090: 47c5 02bd 3697 363d 2ed1 1d3c 7b01 863d
000000a0: de25 28bd f493 073d 3723 13bd b2b2 3f3c
000000b0: 585f 38bd c456 58bd 65df 47bd 25eb 7a3c
000000c0: 0be9 183d 9542 4dbd a9f0 a23d 5cc1 333c
000000d0: e34a 2dbd e642 a2bc f8a4 0b3d 31eb 463d
000000e0: 0e9e 5d3d 503a 883c cca3 5d3d 805c 703d
000000f0: 3f99 7dbd d621 52bd 1668 eebb 5567 2bbd
00000100: 201e 8bbd 407a 0e3d fbb1 283b 0ed7 7c3c
00000110: 3f0b 3e3b a784 4c3d 76fd a83c ba3c 0dbd
00000120: 31b7 b2bb a97f 473d e019 143d fa59 05bd
00000130: 829f 03bd e559 943b 8cb1 6c3d c0df 11bd
00000140: 822e 413d b3ef 20bd 23f6 e1bc 56e1 bbbc
00000150: f6b0 d93b b953 72bd 137e c5bb bf3e 253d
00000160: 94a3 553a abfa e9bc ba87 95bd 3dde 473d
00000170: f0fe a2bc 8702 893c ffac fd3b c8e7 d6bc
00000180: 0330 6c3d 5624 c8bc c897 543c e998 6bbd
00000190: b2ed 27bd f87d 1d3d daeb f83c 5d64 adbd
000001a0: 17d7 1e3d 62b1 093d dfe4 91bc b5e9 1ebd
000001b0: c253 59bd 5fb0 45bd f298 55bd 81ad 65bd
000001c0: 562f d5bc a786 223d fa5f 1dbc 38d9 373d
000001d0: c4f2 fcbc 76aa b2bc bfb5 0d3d cf25 c23c
000001e0: 6f97 e4bc 8cdc d3bc 616c ef3c a6ae 0fbc
000001f0: d208 a03c 9a38 61bd 2217 ab3b c1aa ecbc
00000200: efdc 573c 6bcd d33b e6db 493b 0354 28bb
00000210: 7e0f 8b3d 8605 41bb cb3a 103d 8a60 6c3d
00000220: ea53 373c dd54 3dbd 0013 a0bc 99a1 043d
00000230: 91d5 3ebd 71c3 c83c 52d4 543d d01d a9bb
00000240: 46fa fc3b c4ac 6dbd 1a9a 4ebd df66 2b3d
00000250: 84b8 2cbd 2fc7 f5bc 9e5d 2d3c af0e 423d
00000260: d99a 3f3d 3b46 dc3c 1a3d a83c 3a26 4a3d
00000270: 7f86 50bd 26d6 82bc e205 42bd 5e24 4a3d
00000280: 65e6 18bd 47b3 673d 8769 703c 4505 8fbd
00000290: 1362 37bd 0de5 103d 4477 54bd 6590 853c
000002a0: 80a0 46bd d8b2 2cbc 85f6 5bbd eb11 36bc
000002b0: 18de 343d 5adc 843d bae6 8e3d 3f93 95bc
000002c0: 9c66 aabc facc 4ebc 403f 42bd 9e30 863d
000002d0: 876a 653d dc48 8abc e14f 733d aa2a 913c
000002e0: 73e7 6c3d 4db8 983c e2eb 49bd eaa1 633d
000002f0: 7d8e 88bd f8c0 93bd c76d 89bc cad3 2bbd
00000300: 7fbd 1a3d 403b 903c de2b 613c 1d30 853d
00000310: 1e7d a73c 3ac5 f838 6d27 edbc 2b3f 8a3c
00000320: 9d94 733d 6ca7 1d3d 677d 1dbd 01a3 463d
00000330: 8df3 4bbd 0cf5 5a3d 3e4b 163d c243 acbb
00000340: eec4 63bc 2117 723d 2550 743c 4ceb 0f3d
00000350: 949e a33b e3f5 c23c b143 2e3d 8010 773d
00000360: 7801 a3bc f553 02bd bd4a 453d 17d7 4f3c
00000370: 0881 d3bc 99e6 973c 8771 1a3d fa8b 1f3c
00000380: ff2e 923b 774c ea3c cd76 933c 72ff 153c
00000390: a502 2f3d 20b5 4cbd 60a7 e43c e69f f1bc
000003a0: a7d8 05bd 4e3f 5cbd 8c0b 7e3c 487d 513d
000003b0: f9bf 923c fb5f 503d 9533 04bc b98e 2abd
000003c0: bcc1 65bc 0b1f 0e3d 1858 1cbd 3a7f 383c
000003d0: b97c 633d 6f94 85bd 8f08 113d 6980 b6bc
000003e0: 86bd 8cbc 7a22 4ebc 77c5 5e3b a14f 97bd
000003f0: e30d 2b3d df81 62bd e12a 87bc 7fe1 b5bc

encoder.0.bias f4 [16]
-0.04579433 0.058219746 0.039537672 -0.054016285 0.020564891 0.03747628 0.01371621 -0.019016797
-0.05641985 0.04833567 0.0023020708 0.049574837 -0.030367533 -0.002246297 0.009542732 -0.017282516
00000000: d692 3bbd d477 6e3d 41f2 213d 2e40 5dbd
00000010: b477 a83c ba80 193d f4b9 603c 1dc9 9bbc
00000020: 8018 67bd a0fb 453d 57de 163b fc0e 4b3d
00000030: 55c5 f8bc 9c36 13bb 1e59 1c3c 1094 8dbc

encoder.1.weight f4 [16]
1.0002564 0.99162817 0.9911934 1.0044638 0.99347705 0.9873305 0.99097174 1.0273112
0.99869525 1.0147399 0.98539144 1.0316526 1.0013349 0.99770474 0.9975769 0.9902219
00000000: 6708 803f 58db 7d3f dabe 7d3f 4592 803f
00000010: 8354 7e3f b1c1 7c3f 53b0 7d3f ef7e 833f
00000020: 7eaa 7f3f ffe2 813f 9d42 7c3f 310d 843f
00000030: be2b 803f 9469 7f3f 3361 7f3f 2f7f 7d3f

encoder.1.bias f4 [16]
-0.007954345 0.0059334813 -0.012722513 -0.0028191614 -0.0021788436 0.0013441641 -0.0032065525 -0.003318201
0.00058950606 -0.005297859 0.005847453 0.0075881397 -0.006596434 -0.0038669119 -0.0072695403 -0.007982056
00000000: f152 02bc a66d c23b 1672 50bc aec1 38bb
00000010: eeca 0ebb aa2e b03a 0625 52bb 2d76 59bb
00000020: 1589 1a3a aa99 adbb fe9b bf3b eea5 f83b
00000030: e626 d8bb 046c 7dbb 5335 eebb 2bc7 02bc

encoder.1.running_mean f4 [16]
-0.046213396 0.05893172 0.03983559 -0.054435637 0.02012252 0.037387673 0.013127754 -0.019065069
-0.05657241 0.0480998 0.0021942102 0.049658854 -0.030389324 -0.0027974085 0.009773329 -0.017888462
00000000: 424a 3dbd 6362 713d a52a 233d e7f7 5ebd
00000010: fcd7 a43c d123 193d cb15 573c 592e 9cbc
00000020: 79b8 67bd 4c04 453d bdcc 0f3b 1567 4b3d
00000030: 08f3 f8bc ba54 37bb 5020 203c d38a 92bc

encoder.1.running_var f4 [16]
0.63128954 1.1590438 0.8395143 0.33312568 0.8925449 0.30135646 0.5714417 0.18608887
0.61719245 0.22249204 0.33751512 0.5880799 0.4190945 0.97770417 0.35431153 0.50242203
00000000: 319c 213f 8c5b 943f 69ea 563f 738f aa3e
00000010: d37d 643f 654b 9a3e 014a 123f 158e 3e3e
00000020: 5300 1e3f f4d4 633e c8ce ac3e 688c 163f
00000030: 8e93 d63e d24a 7a3f 5268 b53e bb9e 003f

encoder.3.weight f4 [16, 16, 19]
-0.012236435 -0.05038955 -0.031749878 0.041571554 0.027558299 -0.06305877 0.046140417 0.0039581587
-0.033908922 0.013991733 -0.00057001674 0.004735071 0.02212058 0.05581103 -0.0041141254 -0.03687281
-0.061759226 0.054637056 0.034220252 0.034415513 -0.028255578 0.004909234 -0.055589527 0.008109269
0.0191997 0.0087701185 -0.039360043 -0.052529313 0.0540575 -0.035949074 -0.023890758 -0.0010560291
0.03839495 0.042504277 0.0028255736 -0.04129919 -0.021727324 -0.020251507 0.0115613155 0.0260185
0.015641654 0.029220182 -0.032445125 0.0043365476 0.03738593 -0.017275047 -0.021374762 0.015937816
-0.061942697 0.028606424 -0.020505063 0.040703934 0.039469395 0.020487148 0.020341422 0.042018145
-0.034736708 0.051034782 0.020884333 -0.016751302 -0.048641715 0.013298221 -0.036605336 -0.034034867
-0.035081897 -0.037650775 0.034708425 0.019789724 0.048681557 0.017629944 -0.0056773396 0.060869724
0.06579733 0.031726282 0.042168505 0.006712277 -0.024010872 -0.06995641 -0.009345712 0.038594455
-0.06256425 -0.055898365 0.04983072 -0.010493434 0.006417439 -0.027850382 0.028293103 -0.013702309
0.028632844 0.040111277 -0.029829934 0.037769902 0.040498182 -0.049800783 -0.048225276 -0.030582855
0.03000386 -0.02970103 0.020390866 -0.01765621 0.04765376 -0.058083486 -0.04339292 0.024814283
0.0075888885 1.1608108e-05 -0.05275806 0.038871635 -0.05313789 0.048839238 0.033554647 0.017595958
-0.049592983 0.03903574 -0.057631172 0.0022506318 -0.052586846 -0.0289964 0.013880309 0.004804944
0.0028569768 0.042567506 -0.04770353 0.001885378 0.044034503 0.03406686 0.030369801 0.0066743228
0.06593933 0.048440307 0.024983115 0.05504488 0.030991776 0.035835024 0.0017658263 0.046268597
-0.040628336 0.046990313 -0.0037052375 0.010217457 -0.007318503 -0.053212732 -0.0048160907 -0.036552377
0.011774374 0.025508966 -0.022253105 -0.013927843 0.0274314 -0.03540606 -0.03493684 0.06501817
-0.030291352 0.055864945 0.0060658604 0.011152863 0.02999013 -0.048781943 0.035974547 -0.052533362
-0.008476724 -0.02953027 -0.044478584 0.03928767 -0.013787112 -0.0031193623 0.012729181 0.04300324
0.032020766 -0.040599287 -0.01645204 -0.055942275 -0.012256416 0.013104402 0.03863287 -0.0073195053
-0.02387754 -0.027757695 -0.024392644 0.0075191986 -0.0022425007 -0.042439893 0.014298833 0.044416085
0.0015749427 -0.04891538 -0.017144443 -0.008453543 0.031842027 -0.045798514 -0.045994636 0.026567701
-0.010311001 0.048081458 -0.034151763 0.013327854 0.042926136 -0.043851275 -0.040103316 0.033225678
-0.023633618 0.0018099782 -0.028148679 0.047290523 0.029025067 -0.0068613 -0.016204564 0.03031732
-0.043839615 -0.039704885 -0.03689642 0.0029274859 -0.05387579 -0.048175804 0.049132217 -0.009072608
-0.027053816 0.016552053 -0.034339566 -0.036828823 0.0013605384 0.033525933 -0.040566094 -0.033946577
-0.0017123757 0.020360397 0.0491414 -0.003507588 0.030759428 -0.015174189 -0.015883427 -0.024824727
-0.007819981 0.01803583 0.058512785 0.036209084 -0.0573109 -0.019909801 0.010915993 0.03232736
-0.010234702 0.06422857 -0.038964413 0.039477922 0.015668131 -0.019175831 -0.00092524296 -0.017511304
-0.035802748 -0.034619924 -0.039901428 0.027408926 -0.044395413 0.042694137 0.021382332 -0.028209213
00000000: 547b 48bc 4665 4ebd 290c 02bd ef46 2a3d
00000010: f1c1 e13c f524 81bd bcfd 3c3d 71b3 813b
00000020: 15e4 0abd 953d 653c 2d6d 15ba a828 9b3b
00000030: 3836 b53c 1b9a 643d c9cf 86bb f207 17bd
00000040: 3ef7 7cbd 1bcb 5f3d 892a 0c3d 48f7 0c3d
00000050: 3e78 e7bc a4dd a03b d8b1 63bd bddc 043c
00000060: b048 9d3c 8bb0 0f3c ff37 21bd fa28 57bd
00000070: 666b 5d3d 563f 13bd 8db6 c3bc 756a 8aba
00000080: 0644 1d3d f718 2e3d 422d 393b 5729 29bd
00000090: 80fd b1bc 7de6 a5bc ac6b 3d3c c024 d53c
000000a0: ed22 803c 2a5f ef3c 2ee5 04bd 9919 8e3b
000000b0: fd21 193d 6684 8dbc 201a afbc 0690 823c
000000c0: a0b7 7dbd 0558 ea3c 3cfa a7bc 2bb9 263d
000000d0: a9aa 213d aad4 a73c 0ea3 a63c 381b 2c3d
000000e0: 1448 0ebd d909 513d 9f15 ab3c 073a 89bc
000000f0: 893c 47bd c8e0 593c 7aef 15bd 2568 0bbd
00000100: 09b2 0fbd b337 1abd 6c2a 0e3d 0f1e a23c
00000110: 5066 473d ac6c 903c fa08 babb 8852 793d
00000120: c0c0 863d 6bf3 013d e2b8 2c3d a9f2 db3b
00000130: 73b2 c4bc 4e45 8fbd c21e 19bc 3815 1e3d
00000140: af21 80bd aff5 64bd 4c1b 4c3d a7ec 2bbc
00000150: 6149 d23b 7c26 e4bc f0c6 e73c a67f 60bc
00000160: 6d8f ea3c b94b 243d e85d f4bc 9db4 1a3d
00000170: 6ce1 253d e8fb 4bbd de87 45bd e588 fabc
00000180: a8ca f53c 934f f3bc bf0a a73c c2a3 90bc
00000190: 9730 433d f3e8 6dbd c6bc 31bd 5347 cb3c
000001a0: 36ac f83b 72c0 4237 d618 58bd dd37 1f3d
000001b0: 1ea7 59bd a70b 483d 9970 093d 6625 903c
000001c0: 0322 4bbd f1e3 1f3d aa0e 6cbd 567f 133b
000001d0: 4e65 57bd dc89 edbc 3c6a 633c cb72 9d3b
000001e0: 1e3c 3b3b 445b 2e3d c764 43bd ca1e f73a
000001f0: 865d 343d b189 0b3d 17ca f83c 47b4 da3b
00000200: 330b 873d 5869 463d 64a9 cc3c bd76 613d
00000210: 77e2 fd3c bfc7 123d 4c73 e73a 2484 3d3d
00000220: e669 26bd ea78 403d 92d3 72bb 1f67 273c
00000230: 0ed0 efbb 98f5 59bd 4cd0 9dbb f2b7 15bd
00000240: 4ee9 403c 2ef8 d03c 254c b6bc 9c31 64bc
00000250: d1b7 e03c f205 11bd ef19 0fbd 3f28 853d
00000260: 9225 f8bc a4d2 643d 20c4 c63b 7fba 363c
00000270: dcad f53c 93cf 47bd 0c5a 133d 392d 57bd
00000280: f5e1 0abc 77e9 f1bc 2d2f 36bd 1cec 203d
00000290: 57e3 61bc 376e 4cbb 0e8e 503c 2a24 303d
000002a0: 3528 033d 704b 26bd 6ec6 86bc ba23 65bd
000002b0: 22cf 48bc d9b3 563c 803d 1e3d 76d8 efbb
000002c0: d59a c3bc 1b64 e3bc 15d3 c7bc 9c63 f63b
000002d0: ebf6 12bb 74d5 2dbd a745 6a3c a4ed 353d
000002e0: 4f6e ce3a 7e5b 48bd 8172 8cbc bb80 0abc
000002f0: c96c 023d 3997 3bbd df64 3cbd 82a4 d93c
00000300: 79ef 28bc 10f1 443d b8e2 0bbd 125d 5a3c
00000310: 51d3 2f3d 659d 33bd 6043 24bd a617 083d
00000320: 4a9b c1bc ca3c ed3a 0f98 e6bc b5b3 413d
00000330: fac5 ed3c c2d4 e0bb 6fbf 84bc 075c f83c
00000340: 2b91 33bd 97a1 22bd b320 17bd 10db 3f3b
00000350: dcac 5cbd fe53 45bd dd3e 493d 47a5 14bc
00000360: f79f ddbc 2c98 873c a5a7 0cbd d2d9 16bd
00000370: 1854 b23a 7d52 093d a228 26bd 910b 0bbd
00000380: cb71 e0ba d9ca a63c 7e48 493d 90df 65bb
00000390: 32fb fb3c 299d 78bc f61d 82bc 3a5d cbbc
000003a0: 611f 00bc e1bf 933c 1aab 6f3d fa4f 143d
000003b0: d6be 6abd e119 a3bc fed8 323c b269 043d
000003c0: 74af 27bc 458a 833d 2699 1fbd 9ab3 213d
000003d0: 745a 803c a216 9dbc 018c 72ba de73 8fbc
000003e0: e7a5 12bd 9fcd 0dbd ae6f 23bd af88 e03c
000003f0: f7d7 35bd 0ce0 2e3d 002a af3c 0217 e7bc

encoder.3.bias f4 [16]
0.0023948727 0.051222555 0.04278032 -0.022103759 0.039310526 -0.043147277 0.0019069052 -0.005999416
0.028336516 -0.030422354 -0.0453259 -0.045359522 0.014071125 -0.011949757 0.047246438 0.059358593
00000000: 4cf3 1c3b bece 513d 6b3a 2f3d f112 b5bc
00000010: 1304 213d 33bb 30bd 1ff1 f93a c096 c4bb
00000020: fb21 e83c 4d38 f9bc a7a7 39bd e8ca 39bd
00000030: 938a 663c eac8 43bc 7b85 413d ff21 733d

encoder.4.weight f4 [16]
0.99898905 1.0014071 0.9970285 1.003007 0.9980198 1.0055059 0.9929081 1.010155
0.9977445 1.0353084 0.98812705 1.0006824 1.0037045 0.99062014 0.9916236 0.99769646
00000000: bfbd 7f3f 1c2e 803f 433d 7f3f 8962 803f
00000010: 3a7e 7f3f 6bb4 803f 3a2f 7e3f c24c 813f
00000020: 2f6c 7f3f fc84 843f e5f5 7c3f 5c16 803f
00000030: 6479 803f 4899 7d3f 0bdb 7d3f 0969 7f3f

encoder.4.bias f4 [16]
0.007867611 -0.0026081405 0.006736362 -0.0025426645 -0.0014832038 -0.0006129081 -0.007085503 -0.0010946378
-0.00060247816 -0.0070172045 -0.016874602 -0.0019137952 -0.001437014 -0.011982972 -0.004084657 0.004549832
00000000: 27e7 003c 56ed 2abb b3bc dc3b d5a2 26bb
00000010: 1068 c2ba 91ab 20ba 822d e8bb f379 8fba
00000020: a0ef 1dba 94f0 e5bb 9b3c 8abc 50d8 faba
00000030: 305a bcba 3a54 44bc 96d8 85bb c216 953b

encoder.4.running_mean f4 [16]
-0.0030062855 -0.019476831 -0.28602412 0.32411534 -0.41185322 -0.37586576 0.15647884 0.07892442
0.06038749 -0.14497733 -0.12631154 0.14948127 -0.03197484 -0.17127107 -0.3396942 -0.27526343
00000000: 1a05 45bb e08d 9fbc c171 92be 72f2 a53e
00000010: 6dde d2be 7a71 c0be fd3b 203e 20a3 a13d
00000020: df58 773d f074 14be d057 01be 9e11 193e
00000030: 0df8 02bd af61 2fbe 66ec adbe 54ef 8cbe

encoder.4.running_var f4 [16]
0.27215365 0.44310564 0.14510761 0.33594596 0.2745527 0.42129773 0.18862568 0.17796539
0.29704252 0.07374128 0.23341449 0.17748164 0.14197174 0.49705768 0.2847045 0.2606386
00000000: b957 8b3e bede e23e 1797 143e 1c01 ac3e
00000010: 2c92 8c3e 56b4 d73e 1727 413e 8f3c 363e
00000020: f515 983e ab05 973d 3504 6f3e bfbd 353e
00000030: 0a61 113e 587e fe3e cac4 913e 6c72 853e

encoder.6.weight f4 [16, 16, 19]
0.04310345 0.036499623 -0.04961674 -0.050337166 0.004990894 0.045782182 -0.03309235 0.019523915
-0.023862626 0.0088880025 -0.034049947 0.034081955 0.02559445 -0.05175415 0.04263688 -0.00925371
0.050179623 0.045712885 -0.028774548 0.039271664 -0.04857131 0.018623827 -0.024515184 0.01974382
-0.012738328 -0.05179777 0.0021913222 0.044880822 -0.02860606 -0.026739666 0.026196336 -0.015061047
0.0061262273 -0.03370101 0.00070619915 -0.019578857 0.0295443 -0.057880644 0.049142644 0.038096923
-0.05133642 0.017987736 0.008512936 -0.061324008 0.033916812 0.031659674 0.02976661 -0.018902492
0.023135027 0.061750576 0.056479976 0.04491773 0.010589242 0.060600147 0.0073588165 0.057767443
0.051965628 0.01911712 -0.036758665 -0.05580765 -0.054177716 0.013409216 -0.032199625 -0.0143007105
0.0058561424 0.02116998 0.009634752 -0.022079589 0.004338018 0.01529155 -0.021035861 0.03265547
-0.02136811 -0.045687743 -0.00992758 0.0274194 0.015384105 -0.023395408 0.02846196 0.04883134
0.038844824 0.027549908 -0.006485013 0.053135965 -0.03380856 0.04611487 0.06677384 0.06335196
-0.04317874 0.009961985 -0.017169531 -0.03032418 0.03611747 0.036022518 0.025047153 0.0050288974
0.017498342 0.014946747 0.032330733 -0.015224166 0.060962442 0.07038658 -0.031824905 0.03394658
-0.043877363 0.035361394 0.04685951 0.014211868 -0.038643543 -0.045604378 0.026115777 -0.043496527
-0.016247654 0.013649829 0.0012665599 0.008489446 0.023222191 -0.022508333 -0.02720401 0.014995748
0.02304903 0.057232037 -0.0015609153 -0.0030329765 0.01833237 0.06254436 0.016275901 0.044735923
-0.032356955 -0.008934215 -0.017505925 0.024429854 0.021329328 0.031870555 -0.054091636 -0.044658653
-0.044651907 -0.033162788 -0.024134763 -0.044729985 -0.007895807 -0.01332079 4.705166e-05 -0.021188797
0.051334582 -0.019603057 0.04387545 -0.049994435 -0.01680644 0.036217373 -0.017019853 0.02981853
-0.0060870443 -0.031223731 0.0417085 -0.016666798 0.056385905 -0.05689403 0.01682119 -0.0020322246
-0.040554408 -0.0619968 -0.048992418 -0.013874467 0.038915545 -0.064262785 -0.018192435 0.039726093
-0.009061817 0.014656399 -0.04839061 -0.017924197 0.029549351 -0.002793085 0.03144643 -0.01824893
-0.04327662 -0.015757395 -0.027990447 -0.043660637 0.065543085 0.010778682 0.016468348 0.031228282
-0.008814055 -0.0050440435 0.011946865 -0.043340754 0.033061523 0.04892537 -0.0008791646 0.008417307
-0.033612832 0.03585338 -0.017862907 0.028102692 -0.052034453 -0.03048453 0.054262627 0.058465622
-0.03822107 -0.014862108 -0.036010735 -0.00018247329 0.050631348 -0.024262253 0.058312096 0.056747578
0.032795586 0.03202533 0.042783093 0.010889481 -0.01781493 -0.028365647 -0.037016097 -0.049433794
0.043366972 -0.00026557702 0.048652466 0.032452624 0.043655906 -0.04750432 0.058137875 -0.03652569
0.041127257 -0.052217487 -0.04412557 -0.029664703 -0.03137299 -0.004212369 -0.02034571 0.04243258
0.035174012 -0.005771698 -0.033347663 -0.04596319 -0.027168425 0.032823093 0.026601182 -0.019673988
-0.0006984323 0.048957914 -0.05877925 -0.05801106 0.029102955 0.028649783 -0.035417054 -0.040534675
0.02783338 -0.03487422 0.055125136 0.002546481 0.020922406 -0.029795181 -0.013587206 -0.05605628
00000000: 3e8d 303d a180 153d ec3a 4bbd 582e 4ebd
00000010: a78a a33b 1986 3b3d d88b 07bd 9ef0 9f3c
00000020: 8e7b c3bc fc9e 113c f577 0bbd 8599 0b3d
00000030: 74ab d13c 29fc 53bd 02a4 2e3d df9c 17bc
00000040: 2689 4d3d 6f3d 3b3d 9ab8 ebbc 53db 203d
00000050: b6f2 46bd ff90 983c 11d4 c8bc cbbd a13c
00000060: 6cb4 50bc e629 54bd 499c 0f3b f4d4 373d
00000070: 4257 eabc 250d dbbc b399 d63c 9cc2 76bc
00000080: 85be c83b 120a 0abd 3920 393a d763 a0bc
00000090: e306 f23c 4114 6dbd cc49 493d 850b 1c3d
000000a0: 2346 52bd 045b 933c d779 0b3c e22e 7bbd
000000b0: 5bec 0a3d 93ad 013d 1bd9 f33c 66d9 9abc
000000c0: ab85 bd3c 2cee 7c3d 8c57 673d a7fb 373d
000000d0: 807e 2d3c dc37 783d 3a22 f13b 8e9d 6c3d
000000e0: e9d9 543d 829b 9c3c 4190 16bd 9096 64bd
000000f0: 74e9 5dbd 54b2 5b3c c1e3 03bd 874d 6abc
00000100: e2e4 bf3b aa6c ad3c 14db 1d3c 41e0 b4bc
00000110: ef25 8e3b 6989 7a3c 6653 acbc bec1 053d
00000120: 2d0c afbc 1223 3bbd 4aa7 22bc a69e e03c
00000130: 9d0d 7c3c baa7 bfbc 0e29 e93c 5f03 483d
00000140: c01b 1f3d 58b0 e13c 3b80 d4bb 19a5 593d
00000150: d87a 0abd f2e2 3c3d b9c0 883d acbe 813d
00000160: 31dc 30bd 9837 233c 1ea7 8cbc 6a6a f8bc
00000170: eaef 133d 598c 133d b02f cd3c 73c9 a43b
00000180: af58 8f3c 33e3 743c 3b6d 043d c86e 79bc
00000190: c1b3 793d d726 903d d55a 02bd 920b 0b3d
000001a0: c0b8 33bd 1cd7 103d c2ef 3f3d e5d8 683c
000001b0: b148 1ebd a8cb 3abd c1f0 d53c 6a29 32bd
000001c0: cd19 85bc 88a3 5f3c b302 a63a 5117 0b3c
000001d0: 773c be3c 6563 b8bc f2da debc bab0 753c
000001e0: 52d1 bc3c 246c 6a3d a097 ccba e7c4 46bb
000001f0: c42d 963c 4217 803d 0a55 853c 043d 373d
00000200: ba88 04bd d060 12bc 9668 8fbc 1e21 c83c
00000210: d8ba ae3c b38a 023d 318f 5dbd feeb 36bd
00000220: ebe4 36bd b4d5 07bd 44b6 c5bc ca36 37bd
00000230: 6a5d 01bc 713f 5abc 5659 4538 2194 adbc
00000240: 3644 523d 9796 a0bc beb6 333d f7c6 4cbd
00000250: a9ad 89bc ab58 143d 386d 8bbc fd45 f43c
00000260: d475 c7bb e9c8 ffbc 88d6 2a3d cf88 88bc
00000270: e8f4 663d b709 69bd 98cc 893c 122f 05bb
00000280: 611c 26bd 5bf0 7dbd 46ac 48bd bc51 63bc
00000290: e865 1f3d 359c 83bd 4d08 95bc d4b7 223d
000002a0: 0478 14bc 6521 703c 3b35 46bd c4d5 92bc
000002b0: 7b11 f23c 310c 37bb f9cd 003d c87e 95bc
000002c0: d342 31bd a715 81bc 394c e5bc 7fd5 32bd
000002d0: 743b 863d 1299 303c a1e8 863c 74d2 ff3c
000002e0: d368 10bc 8148 a5bb c9bc 433c 1386 31bd
000002f0: 856b 073d f865 483d bd77 66ba bfe8 093c
00000300: 9cad 09bd feda 123d 3b55 92bc 9e37 e63c
00000310: 1422 55bd b1ba f9bc 7d42 5e3d a679 6f3d
00000320: b28d 1cbd 3380 73bc fe7f 13bd 4d56 3fb9
00000330: d162 4f3d a2c1 c6bc aad8 6e3d 2670 683d
00000340: aa54 063d fe2c 033d 533d 2f3d cb69 323c
00000350: 9ef0 91bc 135f e8bc 319e 17bd 177b 4abd
00000360: 91a1 313d 253d 8bb9 cf47 473d 0bed 043d
00000370: 89d0 323d e493 42bd fb21 6e3d f69b 15bd
00000380: 0e75 283d 01e2 55bd 04bd 34bd 6403 f3bc
00000390: f780 00bd ea07 8abb 0cac a6bc c9cd 2d3d
000003a0: a012 103d 8320 bdbb 8f97 08bd e643 3cbd
000003b0: 5190 debc 8271 063d b9ea d93c 582b a1bc
000003c0: 0017 37ba 1888 483d 83c2 70bd 019d 6dbd
000003d0: 5269 ee3c f3b2 ea3c 7911 11bd b007 26bd
000003e0: d402 e43c 45d8 0ebd e5ca 613d dde2 263b
000003f0: 7765 ab3c 0615 f4bc df9c 5ebc 459b 65bd

encoder.6.bias f4 [16]
0.057312652 -0.007843354 -0.023797672 0.050323337 -0.03603332 -0.054787613 0.01389033 -0.014117102
-0.035164624 -0.036704857 0.006984483 -0.0401564 -0.03607794 0.019064596 -0.02865812 -0.026517471
00000000: acc0 6a3d 6981 00bc 56f3 c2bc d81f 4e3d
00000010: ad97 13bd fa68 60bd 4494 633c 6b4b 67bc
00000020: c808 10bd d557 16bd 17de e43b 0a7b 24bd
00000030: 76c6 13bd 5b2d 9c3c 6fc4 eabc 2b3b d9bc

encoder.7.weight f4 [16]
0.9931667 1.0009066 1.0019029 1.0123472 0.9886893 1.0011836 0.9873481 1.0156729
0.99961376 1.0156051 0.99521875 1.0012609 1.0008109 0.99353546 0.9987894 1.0004131
00000000: 2c40 7e3f b51d 803f 5b3e 803f 9894 813f
00000010: be1a 7d3f c926 803f d8c2 7c3f 9201 823f
00000020: b0e6 7f3f 59ff 813f a8c6 7e3f 5129 803f
00000030: 921a 803f 5758 7e3f aab0 7f3f 890d 803f

encoder.7.bias f4 [16]
-0.0096871285 0.005827743 -0.0017411538 -0.0042899135 -0.004860072 -0.0064038862 -0.0071754945 0.0047731535
-0.004736862 0.0050393017 -0.004474745 -0.011805556 -0.0006561689 -0.004881485 -0.003698688 0.010272267
00000000: c3b6 1ebc a7f6 be3b 6d37 e4ba 6792 8cbb
00000010: 3d41 9fbb b1d7 d1bb 6920 ebbb 1d68 9c3b
00000020: ae37 9bbb ba20 a53b e2a0 92bb 176c 41bc
00000030: c002 2cba ddf4 9fbb b065 72bb 034d 283c

encoder.7.running_mean f4 [16]
0.28676313 0.37734517 -1.0004373 0.342626 0.16773249 -0.23158051 -0.15669043 0.3418139
0.12927574 0.24141003 -0.23617549 0.20568079 -0.0740218 -0.30116063 -0.56512326 -0.1472069
00000000: 9ed2 923e 6333 c13e 540e 80bf ad6c af3e
00000010: 11c2 2b3e 7123 6dbe 7573 20be 3b02 af3e
00000020: dc60 043e 3134 773e fdd7 71be fc9d 523e
00000030: be98 97bd ba31 9abe ebab 10bf 68bd 16be

encoder.7.running_var f4 [16]
0.1632748 0.2509463 0.25569984 0.16458215 0.2510276 0.21024813 0.22418112 0.15282373
0.12945732 0.08957051 0.14280029 0.17528012 0.13961002 0.20322113 0.20770547 0.18389378
00000000: 8231 273e 097c 803e 17eb 823e 3988 283e
00000010: b186 803e 494b 573e bc8f 653e d37d 1c3e
00000020: 7690 043e be70 b73d 3d3a 123e a27c 333e
00000030: eef5 0e3e 3319 503e beb0 543e a74e 3c3e

encoder.9.weight f4 [16, 16, 19]
0.006721665 0.018081492 0.047992688 -0.00061358605 0.0020734137 -0.05108672 0.019153403 -0.014673619
-0.014552075 0.00530951 -0.053264465 -0.026289573 -0.035372406 -0.0023094052 0.0102502005 -0.0077269645
0.025297314 -0.042029463 0.01208911 -0.030917594 0.027252128 -0.022613589 -0.0015687448 0.010745588
-0.05086856 0.0278552 -0.010328266 0.024453994 -0.032105666 -0.024806684 -0.03018125 0.02856294
-0.037737284 -0.030509098 0.0065641557 -0.043261282 -0.027691487 0.024132563 -0.028213924 -0.042636786
0.010229118 -0.0008193115 0.03728669 0.021230541 -0.029437236 -0.042878956 -0.04637292 0.018505307
-0.0015777725 0.024026705 0.050095942 -0.044595737 -0.024462553 -0.02729153 0.012187793 -0.054227866
-0.010810536 -0.034695085 -0.05591919 -0.054015417 -0.027478926 -0.008088991 0.0133104725 0.041752886
0.017567521 0.05598245 0.015780207 0.009012545 -0.05408306 -0.04666646 0.01395941 -0.0047596577
-0.052829564 0.020209901 -0.032488298 -0.04289321 0.015666768 -0.028589992 0.0501681 -0.041183237
-0.057152737 0.05644335 0.054563437 -0.0048487117 0.012279756 0.039743982 -0.05216349 -0.044670228
0.0390269 -0.0325547 -0.065779425 -0.027071517 -0.009000073 -0.055519316 -0.035576984 -0.016769698
0.03174429 -0.0208636 -0.019605337 -0.015860697 -0.01212652 0.04515047 0.0030092117 -0.054092355
-0.04442061 -0.017405545 0.0021724761 0.012839087 0.018063296 0.06386913 0.03839264 0.05962296
0.030828005 -0.06319989 0.021386396 -0.048602074 -0.05890295 -0.059335 -0.036211345 0.036278535
0.022499105 0.054039363 -0.032298338 0.05767303 0.029657295 0.0055248905 -0.05291082 0.044835445
-0.03942002 -0.04603935 -0.0005723012 0.0031024422 -0.048055723 0.022430914 0.041863736 -0.008217534
-0.01019331 0.005981038 -0.05430973 0.033944134 -0.025978198 0.030423567 0.049512073 0.016048161
-0.011927867 0.04104963 -0.025380868 0.020399112 -0.04738268 -0.03966727 0.018603282 0.04019243
0.028811866 0.00052601565 0.057607736 0.048152745 -0.010342058 -0.025854306 -0.050294146 0.034705352
0.05498003 0.050358035 -0.018924437 0.037051264 0.038214933 -0.02534329 0.021614805 -0.0013448566
-0.038405728 -0.017621731 0.02234891 0.047314033 -0.028251875 -0.01857828 -0.026905935 0.059959818
0.05575556 -0.013639014 -0.042915795 -0.021336973 -0.0004462413 0.06251075 -0.031136287 0.0021418752
-0.05715418 0.018035661 0.005008938 0.027016003 -0.023445638 -0.0018687631 0.01974114 -0.007891733
-0.03134311 -0.00055674656 -0.023431774 -0.02774168 -0.0035736847 -0.04681286 0.0074576247 -0.042776503
0.05861129 -0.02895852 0.009730896 -0.0013095465 -0.038536984 -0.02317362 -0.031456746 -0.032139555
-0.031196857 0.04862183 0.045925878 -0.011287535 -0.019511914 -0.038359422 -0.05017144 -0.0063592
0.008185533 0.0026265467 -0.04842153 0.03568612 -0.03628262 -0.042942826 0.0046408386 0.044487942
-0.048153833 -0.017981727 0.036239557 0.022024596 0.02118066 -0.015445249 -0.015476843 -0.028607422
-0.004494017 0.066023715 -0.04992444 -0.036740813 -0.0351438 -0.02600415 0.024402265 -0.033879958
0.009464307 -0.0058351103 0.017437309 -0.047752775 0.037975397 0.03260649 -0.04241017 -0.049716238
-0.039811537 -0.017151278 -0.0046017165 0.00475951 -0.03183057 0.017370284 0.0077330084 0.005020329
00000000: 6a41 dc3b a31f 943c fb93 443d 10d9 20ba
00000010: 1ce2 073b 4f40 51bd 99e7 9c3c 9e69 70bc
00000020: d46b 6ebc 66fb ad3b d72b 5abd 3b5d d7bc
00000030: a8e2 10bd 6459 17bb 75f0 273c 7a32 fdbb
00000040: 503c cf3c 1627 2cbd 6711 463c e546 fdbc
00000050: db3f df3c 2240 b9bc 579e cdba 430e 303c
00000060: 8d5b 50bd 9730 e43c e337 29bc be53 c83c
00000070: 3b81 03bd 6337 cbbc ab3e f7bc d4fc e93c
00000080: 6992 1abd 37ee f9bc 2118 d73b be32 31bd
00000090: 42d9 e2bc a7b1 c53c e320 e7bc e9a3 2ebd
000000a0: 0898 273c 10c7 56ba eeb9 183d aceb ad3c
000000b0: 5c26 f1bc d8a1 2fbd 88f1 3dbd 7198 973c
000000c0: 43cd ceba a7d3 c43c 6731 4d3d 05aa 36bd
000000d0: b165 c8bc 7d92 dfbc 4faf 473c 0a1e 5ebd
000000e0: ad1e 31bc 6f1c 0ebd 850b 65bd 453f 5dbd
000000f0: 7c1b e1bc b087 04bc 2b14 5a3c 1305 2b3d
00000100: c3e9 8f3c da4d 653d 7e45 813c 5ba9 133c
00000110: 3386 5dbd 5425 3fbd 02b6 643c e7f6 9bbb
00000120: d063 58bd 3c8f a53c 7312 05bd cab0 2fbd
00000130: 9857 803c 8f35 eabc 117d 4d3d c1af 28bd
00000140: fd18 6abd 2431 673d e97d 5f3d f1e1 9ebb
00000150: 0831 493c 96ca 223d 62a9 55bd 21f8 36bd
00000160: acda 1f3d 1458 05bd 5db7 86bd 16c5 ddbc
00000170: 0b75 13bc 3968 63bd 2cb9 11bd 9b60 89bc
00000180: 4d06 023d 24ea aabc 5f9b a0bc 4bee 81bc
00000190: 50ae 46bc b3ef 383d 3236 453b f28f 5dbd
000001a0: 63f2 35bd 1396 8ebc 1a60 0e3b 095b 523c
000001b0: 7af9 933c d2cd 823d 9a41 1d3d 3437 743d
000001c0: 038b fc3c f26e 81bd 8632 af3c f812 47bd
000001d0: 3844 71bd 4209 73bd 5952 14bd cd98 143d
000001e0: 0b50 b83c 6158 5d3d 434b 04bd 8e3a 6c3d
000001f0: dbf3 f23c 240a b53b 04b9 58bd 5fa5 373d
00000200: e376 21bd c293 3cbd 7c06 16ba 5852 4b3b
00000210: 14d6 44bd 09c1 b73c 4f79 2b3d d6a2 06bc
00000220: d701 27bc 95fc c33b e173 5ebd 0109 0b3d
00000230: 3bd0 d4bc d83a f93c 2ccd 4a3d 6f77 833c
00000240: 1a6d 43bc a823 283d 8aeb cfbc 0a1c a73c
00000250: 5714 42bd 267a 22bd e965 983c d1a0 243d
00000260: dd06 ec3c 50e4 093a 17f6 6b3d d03b 453d
00000270: bc71 29bc 69cc d3bc 3c01 4ebd 3327 0e3d
00000280: bd32 613d 3a44 4e3d 6c07 9bbc 11c3 173d
00000290: 4387 1c3d bb9c cfbc 8811 b13c e645 b0ba
000002a0: 534f 1dbd 735b 90bc 1015 b73c 5ccc 413d
000002b0: 7a70 e7bc 7a31 98bc d669 dcbc 6d98 753d
000002c0: f15f 643d 2c76 5fbc 79c8 2fbd e0ca aebc
000002d0: 7ef5 e9b9 a305 803d 8711 ffbc b45e 0c3b
000002e0: 801a 6abd 86bf 933c 0422 a43b aa50 dd3c
000002f0: 1111 c0bc 49f1 f4ba 2cb8 a13c 544c 01bc
00000300: a261 00bd a1f2 11ba fef3 bfbc 8542 e3bc
00000310: 7b34 6abb d7be 3fbd 175f f43b 6a36 2fbd
00000320: 6412 703d 6b3a edbc 566e 1f3c 17a5 abba
00000330: f5d8 1dbd 9bd6 bdbc cad8 00bd c4a4 03bd
00000340: 8d90 ffbc af27 473d c61c 3c3d 5aef 38bc
00000350: 73d7 9fbc c51e 1dbd 9180 4dbd d660 d0bb
00000360: 9d1c 063c 2422 2c3b a755 46bd 9c2b 123d
00000370: 169d 14bd d1e4 2fbd 2d12 983b fd38 363d
00000380: f43c 45bd 6a4e 93bc ee6f 143d ed6c b43c
00000390: 1083 ad3c 120e 7dbc 9692 7dbc 1d5a eabc
000003a0: 8c42 93bb 7137 873d 927d 4cbd 897d 16bd
000003b0: f2f2 0fbd a806 d5bc 42e7 c73c b6c5 0abd
000003c0: 2e10 1b3c 7434 bfbb b0d8 8e3c 6a98 43bd
000003d0: 178c 1b3d 628e 053d 49b6 2dbd 41a3 4bbd
000003e0: 6c11 23bd d680 8cbc ffc9 96bb aaf5 9b3b
000003f0: c660 02bd 204c 8e3c 2d65 fd3b 9281 a43b

encoder.9.bias f4 [16]
-0.052805465 0.016975502 -0.05357908 0.0050063976 0.054019056 -0.038268693 -0.038323134 0.056752436
-0.024833249 0.011391744 0.017206624 0.04726984 0.013239316 -0.053576387 0.04642662 -0.045164887
00000000: 8b4a 58bd 3510 8b3c bd75 5bbd b50c a43b
00000010: 1643 5d3d a2bf 1cbd b8f8 1cbd 3e75 683d
00000020: 196f cbbc 70a4 3a3c e8f4 8c3c 059e 413d
00000030: b7e9 583c ea72 5bbd d729 3e3d d1fe 38bd

encoder.10.weight f4 [16]
0.9911049 0.9922576 1.0037705 0.9925153 0.9913443 1.0667495 0.9856834 1.008205
0.9909456 0.9905424 1.0020705 0.98783666 0.99869215 1.0053595 0.9958377 0.9842588
00000000: 0db9 7d3f 9804 7e3f 8d7b 803f 7c15 7e3f
00000010: bdc8 7d3f 3f8b 883f bf55 7c3f dd0c 813f
00000020: 9cae 7d3f 3094 7d3f d943 803f dde2 7c3f
00000030: 4aaa 7f3f 9faf 803f 38ef 7e3f 62f8 7b3f

encoder.10.bias f4 [16]
-0.01101913 -0.005861215 -0.006067294 -0.00054683775 0.0044295727 0.011231213 -0.008398253 -0.0020149006
-0.008444781 -0.018308328 0.007058418 -0.009524638 -0.0021842145 -0.00036251536 -0.0050678086 -0.025287455
00000000: 9589 34bc 6f0f c0bb 27d0 c6bb a959 0fba
00000010: f325 913b 1f03 383c d398 09bc 6c0c 04bb
00000020: fb5b 0abc 59fb 95bc 4d4a e73b 3a0d 1cbc
00000030: 0a25 0fbb fd0f beb9 dc0f a6bb a327 cfbc

encoder.10.running_mean f4 [16]
-0.41378435 -0.0044910703 0.25240117 -0.17672314 -0.32231098 0.9781391 -0.31550875 0.36333972
0.22046126 0.4490628 0.48729017 0.010279999 -0.10587144 0.3345856 0.25536618 -0.07033377
00000000: 8bdb d3be d429 93bb ba3a 813e e9f6 34be
00000010: f205 a5be 5367 7a3f 5d8a a1be aa07 ba3e
00000020: 99c0 613e 8feb e53e 197e f93e 716d 283c
00000030: 20d3 d8bd ce4e ab3e 5bbf 823e 270b 90bd

encoder.10.running_var f4 [16]
0.1855184 0.14838108 0.1698594 0.1924361 0.24299902 0.26168376 0.18343458 0.16263969
0.18004845 0.13759886 0.13791203 0.22365752 0.1956375 0.15491506 0.1810802 0.20579848
00000000: 89f8 3d3e 36f1 173e 9fef 2d3e f80d 453e
00000010: bcd4 783e 6afb 853e 46d6 3b3e 058b 263e
00000020: 9f5e 383e b7e6 0c3e d038 0d3e 7a06 653e
00000030: 3255 483e 0ea2 1e3e 176d 393e d6bc 523e

encoder.12.weight f4 [16, 16, 19]
0.005770284 -0.029124899 -0.026785813 -0.012774938 -0.023329772 -0.009994573 0.02021497 -0.048107818
-0.017694077 0.009203396 0.030153073 -0.051305894 -0.00073621 -0.039348636 -0.027826777 0.05454974
-0.0060719065 0.039178923 0.0158404 0.05552919 -0.007969939 0.04161092 -0.037607487 -0.01820099
0.046902843 0.022570781 0.068347886 0.018536946 -0.0042917067 -0.008101292 0.047306843 -0.019903572
-0.004509187 -0.0028775313 -0.020238554 0.022091668 -0.038366567 -0.015802218 -0.034328442 -0.021962453
-0.015877202 -0.05259368 0.005902626 0.03807532 0.05420473 0.012596316 0.031456836 -0.047825392
-0.0071686106 -0.018446488 -0.015707066 0.049221717 0.017379656 0.00067674194 -0.02220826 0.04719719
-0.014973495 0.03620512 -0.011232468 0.03893224 0.05186457 -0.023981795 -0.022073535 0.030120483
-0.02297667 -0.02200718 -0.044163764 -0.0013063793 -0.047007136 0.027163977 0.028035382 -0.05182488
0.055254545 0.002643044 -0.022833595 -0.0038089016 0.01628347 -0.023450676 -0.054834682 -0.007082268
-0.016137736 -0.03736464 0.048124142 0.042962715 0.054320883 -0.03469977 0.021572284 -0.013089768
-0.03896045 0.04179963 -0.047610465 -0.01777707 -0.04726177 -0.008978083 0.036546215 0.069163285
0.06019162 0.05787753 0.025964204 -0.013673443 0.0708281 0.03376462 0.0567707 -0.002612123
-0.011269189 0.030560806 0.028041031 0.030535646 0.026334222 -0.030888522 0.065639004 -0.0056674574
0.06201476 0.06507806 0.01131318 -0.039882492 0.046669517 0.013309667 0.0304375 -0.021487707
-0.008591084 -0.03527991 0.0014122663 -0.0036829498 0.036091886 0.008383764 0.01718589 0.027489807
-0.010341482 0.00040162972 -0.003594266 0.0044249054 0.024020342 -0.014393476 -0.023764156 0.025564533
0.048158053 0.06347848 -0.024819588 -0.020092227 0.052161347 0.041584507 0.00018858445 -0.020283572
-0.041730862 -0.027093511 -0.004144606 -0.021587236 0.020289391 0.04824744 0.047693986 0.026743801
0.0054128435 0.03620825 -0.04786247 -0.01687461 0.040027775 -0.04715377 0.014428793 0.05582077
-0.009463596 -0.039920934 -0.012976593 -0.0002996944 0.035474595 0.030123543 0.03388845 -0.004786333
-0.041024666 0.005798098 -0.03626588 -0.009021463 0.030916557 0.00031502335 0.04725319 0.022746256
-0.018291695 -0.014604979 -0.014181939 0.0087645 0.043477103 0.015647298 0.06205495 -0.024323799
-0.0004678837 0.019010117 0.008604786 0.004971941 -0.016179128 0.011701642 0.0397885 -0.025275147
0.063932054 0.06271518 -0.022245655 -0.03234945 0.028219389 -0.015620232 0.022494026 -0.028963493
-0.04500423 0.010789885 0.07328295 0.010210137 0.04464763 0.012966454 -0.024752641 -0.0011014274
0.047674518 0.042889047 -0.045936912 0.03913619 0.045341868 0.014282035 -0.0189264 -0.009548434
0.04842354 -0.048386853 -0.047617074 -0.015951183 -0.0101637235 -0.046423696 -0.032675818 0.056769013
-0.037871912 0.020492034 0.02381614 0.0036608086 -0.033588137 -0.05839791 0.012243081 -0.01265539
0.025438312 0.045227986 0.04452259 0.005974057 -0.022970531 -0.00548177 -0.0122486595 -0.05013528
-0.015357161 0.003979985 0.008504755 -0.022073578 0.0041554635 0.008104398 0.006744863 0.009572862
-0.004497 0.00054392894 -0.047942553 -0.033482887 -0.022655169 0.021623 -0.031405944 0.010492616
00000000: a714 bd3b 5797 eebc ec6d dbbc f94d 51bc
00000010: 141e bfbc 47c0 23bc dd99 a53c b40c 45bd
00000020: 2bf3 90bc d7c9 163c 9403 f73c 2126 52bd
00000030: 37fe 40ba 092c 21bd fbf4 e3bc 8c6f 5f3d
00000040: d8f6 c6bb 147a 203d bac3 813c 9372 633d
00000050: 5994 02bc 3670 2a3d 4f0a 1abd 3e1a 95bc
00000060: 321d 403d 5ce6 b83c faf9 8b3d cbda 973c
00000070: 72a1 8cbb 48bb 04bc d2c4 413d d10c a3bc
00000080: cdc1 93bb f794 3cbb 53cb a5bc 96f9 b43c
00000090: 4326 1dbd a773 81bc fb9b 0cbd 9aea b3bc
000000a0: e810 82bc 786c 57bd d16a c13b def4 1b3d
000000b0: c705 5e3d c760 4e3c e2d8 003d 8fe4 43bd
000000c0: aae6 eabb 171d 97bc 1bac 80bc b69c 493d
000000d0: c85f 8e3c 6267 313a 19ee b5bc d751 413d
000000e0: 6453 75bc d24b 143d 6308 38bc 6a77 1f3d
000000f0: f16f 543d 7875 c4bc 8fd3 b4bc 3bbf f63c
00000100: 9239 bcbc 6748 b4bc 10e5 34bd d13a abba
00000110: 8e8a 40bd fd86 de3c 75aa e53c 5346 54bd
00000120: 9752 623d ec36 2d3b 850d bbbc c49e 79bb
00000130: e964 853c a21b c0bc 559a 60bd 5f12 e8bb
00000140: 4933 84bc aa0b 19bd d21d 453d acf9 2f3d
00000150: 937f 5e3d 5921 0ebd 5cb8 b03c 7776 56bc
00000160: fe94 1fbd 1736 2b3d 3103 43bd 38a1 91bc
00000170: 8f95 41bd cf18 13bc 7cb1 153d 7ba5 8d3d
00000180: 7d8b 763d fd10 6d3d e2b2 d43c 9406 60bc
00000190: 530e 913d c54c 0a3d 6588 683d 2730 2bbb
000001a0: 68a2 38bc a85a fa3c 4eb6 e53c e425 fa3c
000001b0: deba d73c ed09 fdbc be6d 863d 14b6 b9bb
000001c0: 3003 7e3d a547 853d eb5a 393c d35b 23bd
000001d0: 8928 3f3d ca10 5a3c 1058 f93c fd06 b0bc
000001e0: 9ec1 0cbc ab81 10bd cb1b b93a a55d 71bb
000001f0: 16d5 133d 0e5c 093c 6cc9 8c3c 4e32 e13c
00000200: 526f 29bc d491 d239 c78d 6bbb ccfe 903b
00000210: 4fc6 c43c 9dd2 6bbc 0cad c2bc b66c d13c
00000220: 6141 453d 0101 823d 7352 cbbc 7498 a4bc
00000230: 23a7 553d 8454 2a3d c1be 4539 bc29 a6bc
00000240: fbed 2abd 36f3 ddbc 7acf 87bb b7d7 b0bc
00000250: f035 a63c 1c9f 453d c55a 433d d115 db3c
00000260: 395e b13b 1a4f 143d 700b 44bd 9f3c 8abc
00000270: 2af4 233d 5024 41bd bf66 6c3c 52a4 643d
00000280: 330d 1bbc 2284 23bd c79b 54bc 4d20 9db9
00000290: cf4d 113d a6c5 f63c 9ece 0a3d acd6 9cbb
000002a0: 7b09 28bd f9fd bd3b 888b 14bd c2ce 13bc
000002b0: b844 fd3c b829 a539 908c 413d 5b56 ba3c
000002c0: 77d8 95bc b949 6fbc 5d5b 68bc fa98 0f3c
000002d0: 0c15 323d c32e 803c 552d 7e3d b442 c7bc
000002e0: 4a4e f5b9 1bbb 9b3c 17fb 0c3c aaeb a23b
000002f0: 178a 84bc 3eb8 3f3c 44f9 223d d30d cfbc
00000300: cfee 823d d170 803d 853c b6bc db80 04bd
00000310: 592c e73c 00ec 7fbc 6445 b83c d944 edbc
00000320: 5b56 38bd 0fc8 303c 5f15 963d 6b48 273c
00000330: 6fe0 363d 4071 543c 0dc6 cabc c55d 90ba
00000340: 5b46 433d 6dac 2f3d 5828 3cbd 454d 203d
00000350: 65b8 393d 32ff 693c 8a0b 9bbc 0971 1cbc
00000360: c357 463d 4b31 46bd 1f0a 43bd 0eac 82bc
00000370: bf85 26bc c626 3ebd 14d7 05bd a086 683d
00000380: 941f 1bbd e9de a73c 111a c33c 2dea 6f3b
00000390: b793 09bd a632 6fbd 3497 483c 8e58 4fbc
000003a0: 0264 d03c fb40 393d 525d 363d 06c2 c33b
000003b0: b22c bcbc 6ba0 b3bb 9aae 48bc a75a 4dbd
000003c0: 9a9c 7bbc 896a 823b 8757 0b3c a6d3 b4bc
000003d0: 8e2a 883b 4fc8 043c 0304 dd3b 7ed7 1c3c
000003e0: 925b 93bb 7496 0e3a 695f 44bd 5a25 09bd
000003f0: 5597 b9bc b822 b13c 85a3 00bd 39e9 2b3c

encoder.12.bias f4 [16]
0.030655636 0.023556238 -0.048256442 -0.00686373 -0.04483136 -0.049500544 0.005777954 -0.025846183
0.01628681 0.013253825 0.045593586 -0.04926674 0.015456822 -0.024163907 -0.01565643 -0.0514478
00000000: 8721 fb3c 03f9 c03c 8ca8 45bd 24e9 e0bb
00000010: 17a1 37bd 15c1 4abd fe54 bd3b 60bb d3bc
00000020: eb6b 853c 9226 593c 57c0 3a3d eccb 49bd
00000030: 9c3e 7d3c 63f3 c5bc ea41 80bc eeba 52bd

encoder.13.weight f4 [16]
1.0443426 0.9932304 0.97157836 0.96481067 0.97075254 0.978417 1.0045397 1.0274808
1.0160681 1.0449622 1.0014752 0.9795306 0.9983137 0.9648974 0.9827884 1.034748
00000000: 05ad 853f 5944 7e3f 5cb9 783f d5fd 763f
00000010: 3d83 783f 8979 7a3f c294 803f 7e84 833f
00000020: 850e 823f 52c1 853f 5730 803f 84c2 7a3f
00000030: 7d91 7f3f 8403 773f 0598 7b3f 9f72 843f

encoder.13.bias f4 [16]
0.019840006 -0.006115077 -0.021878347 -0.026070116 -0.03354968 -0.01395389 0.016418908 0.019312516
0.015121898 0.02889919 0.0064272746 -0.008471748 0.0025711346 -0.024658598 -0.011347406 0.02981796
00000000: 8287 a23c fc60 c8bb 383a b3bc ff90 d5bc
00000010: 646b 09bd db9e 64bc f280 863c 4835 9e3c
00000020: d6c1 773c febd ec3c e39b d23b 16cd 0abc
00000030: 7b80 283b d400 cabc 78ea 39bc cb44 f43c

encoder.13.running_mean f4 [16]
0.51729774 0.6482265 0.35497934 0.30232504 -0.3085173 -0.0041354946 0.6766614 0.66544133
0.48418576 0.96511304 -0.3719699 0.2188518 0.68285507 0.092911586 -0.80026805 0.7600834
00000000: a06d 043f 2cf2 253f dabf b53e 59ca 9a3e
00000010: fbf5 9dbe 0b83 87bb ae39 2d3f 5d5a 2a3f
00000020: 32e7 f73e a611 773f d772 bebe b01a 603e
00000030: 97cf 2e3f 6e48 be3d 5ede 4cbf d394 423f

encoder.13.running_var f4 [16]
0.565601 0.40163884 0.30471933 0.2698534 0.33050233 0.16835843 0.54131305 0.5889706
0.6095401 0.84690684 0.2836891 0.24779576 0.54472315 0.31481275 0.70732945 0.81361616
00000000: 3acb 103f 9ba3 cd3e 2c04 9c3e 3a2a 8a3e
00000010: 9a37 a93e 2766 2c3e 7e93 0a3f c7c6 163f
00000020: d20a 1c3f e3ce 583f b33f 913e 2cbe 7d3e
00000030: fa72 0b3f 232f a13e 8b13 353f 2649 503f

encoder.15.weight f4 [16, 16, 19]
0.024436008 0.037294816 0.053091146 0.0003595595 0.051215686 -0.03914452 0.016254233 0.051121276
0.050800852 -0.05676062 0.01554872 0.03702488 0.031688634 0.008679581 0.035693172 0.059968542
0.022964608 0.039382942 0.031425815 0.0679579 0.006296401 -0.032237776 -0.031800285 0.029457932
0.018125026 -0.005331555 0.048704322 0.016166313 -0.046581205 -0.024163628 0.0015545349 -0.03905593
-0.032282684 0.030562606 -0.019020693 0.054933216 0.050165147 0.02494437 0.053106517 -0.006248164
-0.0018016265 0.026998457 -0.048976578 0.029108074 0.013799957 0.031211747 0.046360824 0.050715804
0.024824962 -0.035465747 0.002839538 0.017921606 0.017841414 -0.047462907 0.009084874 0.00029874197
-0.023923362 0.037092473 -0.002133264 -0.02099709 0.043137755 -0.021952184 -0.042243324 0.015852995
0.010565636 0.033649642 -0.030968495 0.042761244 0.0016960936 0.004473884 0.036873683 0.03127011
0.033111587 0.049085993 -0.033671323 0.0013738564 -0.039046414 -0.0061643356 0.039429832 -0.0031200426
-0.044558335 -0.04146385 -0.05893546 -0.014173623 -0.03665422 0.06631269 0.03592766 0.02110422
0.05148805 0.01600547 0.0061366316 0.03539374 0.011596171 -0.0007087171 -0.013055458 -0.041156475
0.06088023 -0.030668648 0.033811152 0.03290218 -0.014642801 0.0052649095 -0.039155584 0.011170772
-0.022302618 -0.00827029 -0.0062622805 0.020673243 0.013555355 0.038631078 -0.013703986 0.04541838
0.06681288 0.02084362 -0.021089531 0.054770067 0.032816824 -0.03288199 0.04822182 0.057676613
0.04318017 -0.036749315 0.03853494 -0.032560505 -0.037763912 0.043225307 -0.034636863 0.03465191
-0.0048283604 0.004796029 0.040729314 -0.0038716353 0.06056914 0.044584714 -0.039324734 -0.033865426
0.06434541 0.034805752 0.012441805 0.016208034 0.03564017 0.03471876 -0.003059497 -0.036918122
0.015261979 -0.026028426 0.013397713 0.022671806 -0.024676166 0.041175496 0.066097945 -0.01607679
0.018238893 0.0016588891 0.017164916 0.0016713807 0.050928514 0.01165089 -0.04578309 -0.012422002
0.017292546 -0.008828476 -0.006910853 0.02175326 -0.025172438 0.026650608 -0.012246071 0.037245616
0.070076115 -0.02449849 0.016170384 0.057974275 0.03438475 0.052930634 -0.054161455 -0.013650888
0.05657501 0.029362056 0.009044722 -0.036082096 0.053803828 -0.043323547 0.04512447 0.038972426
0.027272506 -0.038634077 0.051396925 0.038956974 -0.0043595447 0.045363773 0.04041603 0.021547692
-0.037142143 -0.03767978 0.010543502 -0.039662138 -0.01521698 -0.045389876 -0.019160198 -0.05753061
-0.018587997 0.03769778 0.046651717 -0.03645926 -0.027743155 0.0188912 0.016397558 0.016325202
0.016893633 0.027621185 0.055556953 -0.018124381 -0.0394606 -0.015670223 0.010298033 0.03659258
0.019586204 0.010489128 0.0398565 0.011820542 -0.019323897 -0.03440452 0.022459416 -0.021203881
-0.012034793 -0.024265267 0.026990252 0.014656035 0.031870354 0.030038701 -0.00045622195 -0.008792557
0.043782275 -0.038041115 0.00030620265 0.006656055 0.01708611 -0.054615267 -0.05590829 -0.03675198
0.016724408 0.0021085695 0.051853817 0.022305034 -0.035095975 0.04932683 0.0014951557 0.06447222
0.045825846 0.03752964 0.010560997 0.04321811 -0.032804213 0.028073415 -0.040830094 0.019592248
00000000: 062e c83c 73c2 183d 1a76 593d 4283 bc39
00000010: 8ac7 513d 0156 20bd 9927 853c 8b64 513d
00000020: 8e14 503d d37d 68bd 0fc0 7e3c 67a7 173d
00000030: f1cb 013d cd34 0e3c 0133 123d 93a1 753d
00000040: 4620 bc3c 0250 213d 5bb8 003d 832d 8b3d
00000050: 0a52 ce3b c20b 04bd 0441 02bd c351 f13c
00000060: ef7a 943c 53b4 aebb 2f7e 473d 376f 843c
00000070: efcb 3ebd cdf2 c5bc 89c1 cb3a 1cf9 1fbd
00000080: d93a 04bd 6e5e fa3c 49d1 9bbc a701 613d
00000090: f879 4d3d 2358 cc3c 3886 593d 66bd ccbb
000000a0: 8e24 ecba de2b dd3c aa9b 48bd 0e74 ee3c
000000b0: 3719 623c c7af ff3c d9e4 3d3d 60bb 4f3d
000000c0: b85d cb3c 8844 11bd 8b17 3a3b 55d0 923c
000000d0: 2828 923c 7768 42bd b9d8 143c 78a0 9c39
000000e0: edfa c3bc 47ee 173d 3bce 0bbb 1702 acbc
000000f0: 37b1 303d 11d5 b3bc 5607 2dbd 24de 813c
00000100: 7d1b 2d3c 35d4 093d a4b1 fdbc 6a26 2f3d
00000110: 754f de3a a999 923b dc08 173d 1615 003d
00000120: 04a0 073d 650e 493d f1ea 09bd f912 b43a
00000130: 22ef 1fbd 32fe c9bb 2d81 213d a179 4cbb
00000140: cd82 36bd ffd5 29bd 4f66 71bd 7c38 68bc
00000150: bc22 16bd f3ce 873d e228 133d c2e2 ac3c
00000160: 22e5 523d e71d 833c cc15 c93b 07f9 103d
00000170: defd 3d3c 33c9 39ba 8fe6 55bc b193 28bd
00000180: 8c5d 793d d13c fbbc 907d 0a3d 70c4 063d
00000190: 5ce8 6fbc 4385 ac3b 9b61 20bd 9d05 373c
000001a0: fbb3 b6bc 1c80 07bc d133 cdbb ef5a a93c
000001b0: 4817 5e3c 9f3b 1e3d af86 60bc a008 3a3d
000001c0: 31d5 883d 3dc0 aa3c f4c3 acbc 9456 603d
000001d0: ef6a 063d 44af 06bd 3e84 453d 503e 6c3d
000001e0: b1dd 303d 7386 16bd d0d6 1d3d 2a5e 05bd
000001f0: 55ae 1abd 050d 313d 62df 0dbd 29ef 0d3d
00000200: 3937 9ebb 0228 9d3b c8d3 263d 43bb 7dbb
00000210: 5917 783d 769e 363d f912 21bd 79b6 0abd
00000220: 87c7 833d 7a90 0e3d b6d8 4b3c b6c6 843c
00000230: 6dfb 113d 4235 0e3d d881 48bb 7537 17bd
00000240: 610d 7a3c 9139 d5bc 1582 5b3c 39ba b93c
00000250: ac25 cabc a3a7 283d 5c5e 873d 79b3 83bc
00000260: bb69 953c 156f d93a 709d 8c3c 3b12 db3a
00000270: 6b9a 503d 60e3 3e3c 0d87 3bbd a785 4bbc
00000280: 19a9 8d3c 50a5 10bc 7074 e2bb e533 b23c
00000290: 6e36 cebc 6052 da3c bfa3 48bc dc8e 183d
000002a0: 1184 8f3d 0fb1 c8bc c177 843c 6f76 6d3d
000002b0: 06d7 0c3d cbcd 583d 67d8 5dbd f9a7 5fbc
000002c0: 33bb 673d b288 f03c 5030 143c d2ca 13bd
000002d0: 6761 5c3d 0874 31bd 70d4 383d 8da1 1f3d
000002e0: 976a df3c c43e 1ebd 9585 523d 5991 1f3d
000002f0: 83da 8ebb 5dcf 393d 478b 253d c984 b03c
00000300: 5c22 18bd 1d56 1abd a7be 2c3c c474 22bd
00000310: a450 79bc bcea 39bd d9f5 9cbc 38a5 6bbd
00000320: db45 98bc fd68 1a3d df15 3f3d 4e56 15bd
00000330: 9d45 e3bc b8c1 9a3c 2c54 863c 6ebc 853c
00000340: 8464 8a3c d345 e23c b08f 633d 9579 94bc
00000350: 70a1 21bd d75e 80bc 15b9 283c 1ae2 153d
00000360: 3f73 a03c 97da 2b3c 9240 233d f2aa 413c
00000370: 264d 9ebc c1eb 0cbd cffc b73c c3b3 adbc
00000380: 952d 45bc f4c7 c6bc a91a dd3c de1f 703c
00000390: 7d8a 023d b913 f63c 1331 efb9 a80e 10bc
000003a0: 0b55 333d 00d1 1bbd d389 a039 091b da3b
000003b0: 2bf8 8b3c 42b4 5fbd 1700 65bd 3f89 16bd
000003c0: a001 893c ed2f 0a3b ab64 543d 0cb9 b63c
000003d0: ccc0 0fbd ee0a 4a3d 1af9 c33a 030a 843d
000003e0: e2b3 3b3d aeb8 193d 0808 2d3c 7905 313d
000003f0: b65d 06bd 38fa e53c 753d 27bd ec7f a03c

encoder.15.bias f4 [16]
0.042453263 -0.043575313 0.023509951 -0.035818063 -0.0135010565 -0.03689821 5.935121e-06 0.043501534
0.011037396 0.04423829 -0.02983623 -0.0140655935 -0.048458688 -0.042438783 -0.007863412 0.009555111
00000000: 79e3 2d3d 077c 32bd f197 c03c f6b5 12bd
00000010: 8933 5dbc 9422 17bd 4d26 c736 aa2e 323d
00000020: 32d6 343c 3633 353d 1c6b f4bc 6073 66bc
00000030: 9e7c 46bd 4ad4 2dbd 8ad5 00bc 0a8d 1c3c

encoder.16.weight f4 [16]
1.0533004 0.9948572 0.959976 1.001827 0.9934074 0.98320556 0.9752085 0.9921425
1.018532 1.0095607 1.0256343 1.0052333 1.0005529 0.98772305 0.9572635 1.0128068
00000000: 8cd2 863f f6ae 7e3f fdc0 753f de3b 803f
00000010: f34f 7e3f 5cb3 7b3f 44a7 793f 0dfd 7d3f
00000020: 425f 823f 4939 813f fc47 833f 7cab 803f
00000030: 1e12 803f 6bdb 7c3f 390f 753f a7a3 813f

encoder.16.bias f4 [16]
0.030716674 0.01616372 -0.005795722 -0.013096928 0.0075553823 -0.011460982 -0.015918588 0.017364845
0.0017616502 0.041369364 0.009230919 -0.0156245325 0.02303783 0.0173769 -0.01315626 0.009515082
00000000: 89a1 fb3c c769 843c 0aea bdbb 7f94 56bc
00000010: 2493 f73b d8c6 3bbc b367 82bc b840 8e3c
00000020: 2ce7 e63a ec72 293d 483d 173c 0afe 7fbc
00000030: d5b9 bc3c 005a 8e3c 5b8d 57bc 26e5 1b3c

encoder.16.running_mean f4 [16]
0.9088549 -0.73838544 -0.6821983 0.51018596 0.6478367 0.3451232 -0.4498378 -0.20349844
0.78709364 -0.6306864 0.9108953 0.6222332 -0.59663695 -0.8035616 0.4091732 0.8984254
00000000: b7aa 683f d406 3dbf 8ca4 2ebf 8c9b 023f
00000010: a0d8 253f fdb3 b03e 2451 e6be e561 50be
00000020: f87e 493f aa74 21bf 6f30 693f ad4a 1f3f
00000030: 33bd 18bf 37b6 4dbf 267f d13e 35ff 653f

encoder.16.running_var f4 [16]
2.9479275 2.206306 1.1990919 2.0747745 1.7815168 1.0612646 1.3734204 0.67456484
3.2587512 1.9076018 3.4026377 2.439795 1.2574124 1.7506704 1.1067115 3.079889
00000000: d8aa 3c40 1e34 0d40 d87b 993f 1bc9 0440
00000010: be08 e43f 85d7 873f 3dcc af3f 48b0 2c3f
00000020: 618f 5040 4c2c f43f d1c4 5940 9a25 1c40
00000030: e4f2 a03f f815 e03f b9a8 8d3f e71c 4540
